Model: "model_1"
__________________________________________________________________________________________________
 Layer (type)                   Output Shape         Param #     Connected to                     
==================================================================================================
 input_audio (InputLayer)       [(1, 320)]           0           []                               
                                                                                                  
 speech_features (SpeechFeature  (1, 1, 20)          0           ['input_audio[0][0]']            
 s)                                                                                               
                                                                                                  
 tf_op_layer_ExpandDims (Tensor  (1, 1, 20, 1)       0           ['speech_features[0][0]']        
 FlowOpLayer)                                                                                     
                                                                                                  
 stream (Stream)                (1, 1, 18, 300)      3000        ['tf_op_layer_ExpandDims[0][0]'] 
                                                                                                  
 batch_normalization (BatchNorm  (1, 1, 18, 300)     900         ['stream[0][0]']                 
 alization)                                                                                       
                                                                                                  
 activation (Activation)        (1, 1, 18, 300)      0           ['batch_normalization[0][0]']    
                                                                                                  
 stream_1 (Stream)              (1, 1, 16, 300)      3000        ['activation[0][0]']             
                                                                                                  
 batch_normalization_1 (BatchNo  (1, 1, 16, 300)     900         ['stream_1[0][0]']               
 rmalization)                                                                                     
                                                                                                  
 activation_1 (Activation)      (1, 1, 16, 300)      0           ['batch_normalization_1[0][0]']  
                                                                                                  
 conv2d_1 (Conv2D)              (1, 1, 16, 300)      90300       ['activation_1[0][0]']           
                                                                                                  
 batch_normalization_2 (BatchNo  (1, 1, 16, 300)     900         ['conv2d_1[0][0]']               
 rmalization)                                                                                     
                                                                                                  
 activation_2 (Activation)      (1, 1, 16, 300)      0           ['batch_normalization_2[0][0]']  
                                                                                                  
 stream_2 (Stream)              (1, 1, 12, 300)      3000        ['activation_2[0][0]']           
                                                                                                  
 batch_normalization_3 (BatchNo  (1, 1, 12, 300)     900         ['stream_2[0][0]']               
 rmalization)                                                                                     
                                                                                                  
 activation_3 (Activation)      (1, 1, 12, 300)      0           ['batch_normalization_3[0][0]']  
                                                                                                  
 conv2d_2 (Conv2D)              (1, 1, 12, 300)      90300       ['activation_3[0][0]']           
                                                                                                  
 batch_normalization_4 (BatchNo  (1, 1, 12, 300)     900         ['conv2d_2[0][0]']               
 rmalization)                                                                                     
                                                                                                  
 activation_4 (Activation)      (1, 1, 12, 300)      0           ['batch_normalization_4[0][0]']  
                                                                                                  
 stream_3 (Stream)              (1, 1, 10, 300)      9300        ['activation_4[0][0]']           
                                                                                                  
 batch_normalization_5 (BatchNo  (1, 1, 10, 300)     900         ['stream_3[0][0]']               
 rmalization)                                                                                     
                                                                                                  
 activation_5 (Activation)      (1, 1, 10, 300)      0           ['batch_normalization_5[0][0]']  
                                                                                                  
 conv2d_3 (Conv2D)              (1, 1, 10, 300)      90300       ['activation_5[0][0]']           
                                                                                                  
 batch_normalization_6 (BatchNo  (1, 1, 10, 300)     900         ['conv2d_3[0][0]']               
 rmalization)                                                                                     
                                                                                                  
 activation_6 (Activation)      (1, 1, 10, 300)      0           ['batch_normalization_6[0][0]']  
                                                                                                  
 stream_4 (Stream)              (1, 1, 6, 300)       4800        ['activation_6[0][0]']           
                                                                                                  
 batch_normalization_7 (BatchNo  (1, 1, 6, 300)      900         ['stream_4[0][0]']               
 rmalization)                                                                                     
                                                                                                  
 activation_7 (Activation)      (1, 1, 6, 300)       0           ['batch_normalization_7[0][0]']  
                                                                                                  
 conv2d_4 (Conv2D)              (1, 1, 6, 300)       90300       ['activation_7[0][0]']           
                                                                                                  
 batch_normalization_8 (BatchNo  (1, 1, 6, 300)      900         ['conv2d_4[0][0]']               
 rmalization)                                                                                     
                                                                                                  
 activation_8 (Activation)      (1, 1, 6, 300)       0           ['batch_normalization_8[0][0]']  
                                                                                                  
 stream_5 (Stream)              (1, 1, 4, 300)       9300        ['activation_8[0][0]']           
                                                                                                  
 batch_normalization_9 (BatchNo  (1, 1, 4, 300)      900         ['stream_5[0][0]']               
 rmalization)                                                                                     
                                                                                                  
 activation_9 (Activation)      (1, 1, 4, 300)       0           ['batch_normalization_9[0][0]']  
                                                                                                  
 conv2d_5 (Conv2D)              (1, 1, 4, 300)       90300       ['activation_9[0][0]']           
                                                                                                  
 batch_normalization_10 (BatchN  (1, 1, 4, 300)      900         ['conv2d_5[0][0]']               
 ormalization)                                                                                    
                                                                                                  
 activation_10 (Activation)     (1, 1, 4, 300)       0           ['batch_normalization_10[0][0]'] 
                                                                                                  
 stream_6 (Stream)              (1, 1, 1, 300)       0           ['activation_10[0][0]']          
                                                                                                  
 stream_7 (Stream)              (1, 300)             0           ['stream_6[0][0]']               
                                                                                                  
 dropout (Dropout)              (1, 300)             0           ['stream_7[0][0]']               
                                                                                                  
 data_frame_1input_state (Input  [(1, 640)]          0           []                               
 Layer)                                                                                           
                                                                                                  
 lambda_8 (Lambda)              (1, 320)             0           ['input_audio[0][0]']            
                                                                                                  
 stream/ExternalState (InputLay  [(1, 5, 20, 1)]     0           []                               
 er)                                                                                              
                                                                                                  
…
